steering_model_robust.pth (torch, 481343 bytes, 29 tensors)

features.0.weight f4 [16, 3, 5, 5]
0.009480447 -0.071346514 -0.04507155 0.069108464 0.06797594 0.0016672108 -0.0732886 0.09203501
0.06171132 -0.102993384 0.08217855 -0.07997973 0.07991932 0.06226005 -0.10268316 0.09673774
-0.038030203 -0.016136441 0.11215585 0.08699742 -0.10036778 -0.0678288 0.028342191 -0.008934527
0.045684837 0.04942201 -0.05188566 -0.111195035 0.100848615 -0.079906076 0.11022314 0.095842876
0.01486617 -0.0016156211 0.106798984 -0.0026354303 -0.068116255 0.107997864 0.01772056 0.058753166
0.021956477 0.030199403 -0.021717899 -0.03919391 -0.012465849 -0.0733617 0.06780469 0.0503451
0.06241412 0.08045409 0.07408434 0.03133789 -0.05188485 -0.019251222 0.07804989 -0.019334836
-0.0668848 0.009486591 -0.03344956 0.01650386 0.044000603 -0.097025625 0.04019617 0.06239111
-0.009156086 0.054572284 0.038332902 0.02555399 0.11318773 -0.09054814 0.07232435 -0.081148736
-0.0004192613 -0.09031388 0.06584719 -0.086089596 -0.016247854 0.02566036 0.10218644 -0.054992527
-0.0030909404 -0.045675658 -0.01999402 0.077365234 0.034856576 -0.0296661 -0.08482044 -0.04003314
0.028449645 0.06802989 0.0047702123 0.09101675 0.07381816 -0.05743953 -0.011930023 0.105975
0.025830675 -0.092893444 0.09325534 -0.094206035 -0.07027607 0.09785953 0.030143391 -0.08261141
0.020298364 0.011876265 0.0867435 0.080335304 0.028349772 0.044699352 -0.037298914 0.122520685
0.11810584 -0.07634933 -0.11051574 -0.018786332 -0.03021311 -0.11838756 -0.09105385 -0.07668626
-0.09656154 -0.00360651 -0.013785269 0.027925692 0.10586784 -0.035525102 -0.06703652 -0.07613379
0.060794577 -0.047105867 0.047476694 0.0036527826 0.07641755 0.0037545892 0.045009367 -0.0079494845
-0.05480425 0.10404668 -0.092474096 0.011746176 0.050920334 0.037565507 -0.044542946 -0.026730983
-0.020752456 0.04722625 0.012195679 0.05771954 -0.059178784 -0.06473789 -0.027939051 -0.107335754
0.08673548 0.11815776 -0.08376578 0.08611888 0.107282855 -0.03706703 0.04556244 -0.05256966
0.07824194 -0.017801471 -0.106861226 0.048390053 -0.10908233 -0.038578782 0.08766221 -0.10695248
0.022007197 0.059487704 -0.06724793 -0.079612136 -0.00042087297 0.060304184 0.08111923 -0.053600725
-0.004535846 0.084788285 0.02876913 -0.08126776 0.024987306 0.011532225 0.10921785 -0.0132398475
0.09350899 -0.09392829 0.030201402 0.03627454 -0.062479552 0.091341995 0.033269275 0.02361937
-0.1074838 -0.014690228 -0.0985201 -0.09151321 -0.05869873 -0.05682733 0.04063206 0.026261888
0.07368077 0.0048726504 0.0916932 0.05710435 -0.027784292 -0.08328419 0.034746453 0.015382498
-0.029404225 0.10753203 -0.030336732 -0.09613102 -0.032866877 -0.0289777 -0.11303604 0.106402904
0.026572732 -0.020942425 0.11344187 -0.030188251 0.078471005 0.031221215 -0.026196534 -0.07949924
-0.1161113 -0.038882095 0.10117884 0.049466938 -0.08118725 -0.034024227 -0.026634766 -0.018406274
-0.059879605 0.102999836 0.06947065 -0.013787527 -0.111112535 -0.09839497 -0.0031091173 0.029950012
-0.079168044 -0.0136888735 0.09148788 -0.035223033 -0.10383881 -0.051857457 0.058011424 0.079694994
0.005991728 0.09277199 -0.007915227 -0.051001325 0.016654057 -0.019802116 -0.012837269 -0.014359184
00000000: e053 1b3c 1f1e 92bd f29c 38bd bd88 8d3d
00000010: f836 8b3d 5086 da3a 5518 96bd da7c bc3d
00000020: 02c5 7c3d 32ee d2bd 3a4d a83d 6acc a3bd
00000030: beac a33d 6504 7f3d 8c4b d2bd 701e c63d
00000040: 8fc5 1bbd 9230 84bc f7b1 e53d b42b b23d
00000050: 9f8d cdbd d3e9 8abd e22d e83c 1f62 12bc
00000060: 0620 3b3d bc6e 4a3d 0f86 54bd 39ba e3bd
00000070: b889 ce3d cca5 a3bd abbc e13d 4549 c43d
00000080: 3c91 733c 40c3 d3ba 6db9 da3d 2fb7 2cbb
00000090: 8980 8bbd fc2d dd3d b52a 913c 29a7 703d
000000a0: 12de b33c bd64 f73c bce9 b1bc cb89 20bd
000000b0: 8f3d 4cbc a93e 96bd 2fdd 8a3d aa36 4e3d
000000c0: f3a5 7f3d 1dc5 a43d 88b9 973d 295c 003d
000000d0: 3585 54bd bdb4 9dbc 9fd8 9f3d 1764 9ebc
000000e0: e6fa 88bd a66d 1b3c 6802 09bd 1a33 873c
000000f0: fa39 343d 5fb5 c6bd bda4 243d d28d 7f3d
00000100: 6803 16bc 3087 5f3d f602 1d3d 9a56 d13c
00000110: f8ce e73d 4e71 b9bd ca1e 943d 4f31 a6bd
00000120: 4dd0 dbb9 7cf6 b8bd e4da 863d be4f b0bd
00000130: 381a 85bc ad35 d23c 2047 d13d d83f 61bd
00000140: 6091 4abb 6616 3bbd 80ca a3bc aa71 9e3d
00000150: c5c5 0e3d 5206 f3bc 57b6 adbd caf9 23bd
00000160: 3b0f e93c 4153 8b3d 714f 9c3b fd66 ba3d
00000170: fa2d 973d b645 6bbd 2576 43bc 6c09 d93d
00000180: da9a d33c eb3e bebd a8fc be3d 18ef c0bd
00000190: e6ec 8fbd 946a c83d 46ef f63c 2c30 a9bd
000001a0: c148 a63c aa94 423c 93a6 b13d d686 a43d
000001b0: c83d e83c ab16 373d bfc6 18bd 20ec fa3d
000001c0: 7ae1 f13d 0a5d 9cbd 1456 e2bd cbe5 99bc
000001d0: 7c81 f7bc 2d75 f2bd 717a babd b00d 9dbd
000001e0: 0fc2 c5bd 335b 6cbb 9cdb 61bc 6cc4 e43c
000001f0: 3dd1 d83d c582 11bd 714a 89bd 08ec 9bbd
00000200: bc03 793d 15f2 40bd ec76 423d 8663 6f3b
00000210: ce80 9c3d 8e0f 763b be5b 383d 8e3e 02bc
00000220: 6c7a 60bd 6d16 d53d 0f63 bdbd 0873 403c
00000230: d791 503d 4ade 193d aa72 36bd effa dabc
00000240: 0e01 aabc 5070 413d 63d0 473c 536b 6c3d
00000250: 7465 72bd 4d95 84bd 70e0 e4bc d9d2 dbbd
00000260: 5fa2 b13d b2fc f13d 658d abbd 185f b03d
00000270: 1db7 db3d 99d3 17bd ae9f 3a3d 4953 57bd
00000280: 4f3d a03d 64d4 91bc 0fda dabd a634 463d
00000290: 8e66 dfbd c904 1ebd 3f88 b33d e709 dbbd
000002a0: 7048 b43c 61a9 733d 48b9 89bd b00b a3bd
000002b0: 9da8 dcb9 8501 773d d721 a63d 6f8c 5bbd
000002c0: 6fa1 94bb 7ba5 ad3d 3dad eb3c b66f a6bd
000002d0: 2eb2 cc3c a8f1 3c3c 9cad df3d f2eb 58bc
000002e0: a481 bf3d 7a5d c0bd ee68 f73c 9d94 143d
000002f0: 8fea 7fbd 8311 bb3d 5d45 083d 697d c13c
00000300: 7720 dcbd 48af 70bc e8c4 c9bd 476b bbbd
00000310: 146e 70bd c6c3 68bd ce6d 263d 2c23 d73c
00000320: f2e5 963d c1aa 9f3b a5c9 bb3d 40e6 693d
00000330: e29b e3bc e790 aabd 4c52 0e3d df06 7c3c
00000340: 21e1 f0bc c139 dc3d bd84 f8bc 57e0 c4bd
00000350: 6b9f 06bd a462 edbc 707f e7bd c4e9 d93d
00000360: 0faf d93c 738f abbc 3654 e83d 5a4d f7bc
00000370: 68b5 a03d a2c3 ff3c 1d9a d6bc 7fd0 a2bd
00000380: c3cb edbd d542 1fbd da36 cf3d d89d 4a3d
00000390: 8045 a6bd fd5c 0bbd 2731 dabc c1c8 96bc
000003a0: 5144 75bd 94f1 d23d a146 8e3d 14e5 61bc
000003b0: f88e e3bd 4d83 c9bd 55c2 4bbb ba59 f53c
000003c0: db22 a2bd 4c47 60bc ff5d bb3d 0746 10bd
000003d0: 71a9 d4bd 7c68 54bd 639d 6d3d 2137 a33d
000003e0: 4256 c43b 3eff bd3d deae 01bc c4e6 50bd
000003f0: 176e 883c 0c38 a2bc 6953 52bc c842 6bbc

features.0.bias f4 [16]
0.026431026 0.08349277 -0.03690849 0.088625975 0.048471015 -0.061494764 0.019215183 -0.09502544
0.08239895 0.092736386 -0.11421658 0.043453854 -0.06809495 -0.035559054 0.10624192 -0.11353481
00000000: e185 d83c 42fe aa3d 5b2d 17bd 8981 b53d
00000010: 8b89 463d efe1 7bbd 2969 9d3c b39c c2bd
00000020: c8c0 a83d 93ec bd3d 62ea e9bd abfc 313d
00000030: 5d75 8bbd 5fa6 11bd 5d95 d93d f084 e8bd

features.1.weight f4 [16]
0.99567395 1.0024996 1.0066749 0.99367315 0.9996945 0.99997276 1.0051509 0.997435
1.0027659 0.99838877 1.0095748 0.99996156 1.0044382 0.9983274 0.99700415 1.0028173
00000000: 7de4 7e3f e851 803f b9da 803f 5d61 7e3f
00000010: fbeb 7f3f 37fe 7f3f c9a8 803f e657 7f3f
00000020: a25a 803f 6896 7f3f bf39 813f 7bfd 7f3f
00000030: 6e91 803f 6292 7f3f aa3b 7f3f 515c 803f

features.1.bias f4 [16]
-0.0004402502 0.018354453 -0.00039733812 -0.0038741669 0.012436704 0.0061389445 0.0017125922 -0.004324617
0.00555051 0.001271925 -0.0045121415 -0.0028837689 0.0064027063 -0.0017647543 -0.0006634515 0.004382457
00000000: 62d1 e6b9 145c 963c d251 d0b9 bce5 7dbb
00000010: 51c3 4b3c 3329 c93b 0f79 e03a 84b5 8dbb
00000020: 0de1 b53b b9b6 a63a 96da 93bb 9dfd 3cbb
00000030: cbcd d13b 544f e7ba 7aeb 2dba b79a 8f3b

features.1.running_mean f4 [16]
0.32360488 0.08143277 -0.043954145 -0.06714179 0.055781454 -0.25069264 0.0043744235 -0.07687744
0.27374014 0.02941666 -0.122249834 -0.053402435 0.38780084 -0.17382176 -0.24823475 0.21278362
00000000: 8aaf a53e 39c6 a63d 4309 34bd a381 89bd
00000010: 187b 643d c95a 80be 5357 8f3b eb71 9dbd
00000020: ab27 8c3e 35fb f03c 1f5e fabd 83bc 5abd
00000030: d58d c63e 55fe 31be 4031 7ebe f3e3 593e

features.1.running_var f4 [16]
0.017045388 0.0022032445 0.005718151 0.0058025513 0.004835343 0.0094035175 0.004180057 0.0062664193
0.015725791 0.0027334846 0.0071792654 0.003824858 0.041438624 0.0072966404 0.024045013 0.020264195
00000000: c5a2 8b3c 4f64 103b 545f bb3b 5423 be3b
00000010: cc71 9e3b 3611 1a3c dcf8 883b 8956 cd3b
00000020: 60d3 803c 4324 333b 0b40 eb3b 78aa 7a3b
00000030: 8cbb 293d a818 ef3b 0cfa c43c 1901 a63c

features.3.weight f4 [32, 16, 5, 5]
-0.044144556 -0.058202866 -0.03685382 0.030021954 -0.037762806 -0.02016448 0.012685356 -0.041539777
0.042464513 -0.00522212 -0.032188315 0.011191097 -0.008276194 -0.038251564 0.0017849944 0.03784877
0.013110609 -0.022722486 0.038503457 -0.00788916 0.027546672 -0.031408392 -0.049037844 0.008644602
-0.028382026 -0.0022850833 -0.04677577 -0.055482384 -0.052187942 0.02963657 -0.015880255 -0.022926005
0.0012929412 -0.012456777 0.031349134 -0.0018437086 -0.030897057 0.015115692 -0.028035108 0.042989034
-0.021700526 0.018704643 0.0035640902 -0.034970023 -0.047014233 0.048105232 -0.03356322 -0.021323454
-0.018239256 0.037196234 0.045651883 -0.041966926 -0.040598333 -0.031637672 0.042296194 -0.027229587
-0.015497737 -0.014716981 0.018114347 -0.036808807 -0.0051738303 -0.007667777 -0.035227224 0.056433212
-0.00858204 0.025323093 0.00082457956 -0.016288674 -0.041113243 -0.013682452 -0.0410803 -0.02522728
0.02041347 -0.03207485 0.02401752 0.034712113 -0.0032887505 0.037197605 -0.0038020646 -0.039259847
0.048893966 0.0068526748 -0.0068456414 0.02410363 0.031527612 -0.028004281 -0.018638518 -0.036120947
0.010079558 -0.0030759939 0.030272113 -0.040825143 -0.0070978203 -0.005752116 0.025313519 -0.00332107
0.018300531 0.042173803 -0.045078523 -0.034240026 -0.030220708 -0.04035718 -0.021963824 0.017385496
-0.025864426 -0.016352113 0.029938437 0.04331154 0.040967047 -0.03313114 -0.024426088 0.0150330635
-0.0024566269 -0.020421544 0.0068251234 0.046538644 0.03418226 0.012181156 0.009559852 0.017125115
-0.014319522 -0.039464388 -0.041436672 -0.0001212077 -0.02263528 -0.01444516 0.015302976 0.038163446
0.038255215 -0.0028093199 0.03919798 -0.034723293 0.013976152 -0.009141676 -0.022602202 -0.009298173
-0.001912457 -0.049298014 0.006083647 0.02894176 0.017732976 0.037052438 -0.00013282576 0.017942768
-0.038908295 -0.025242785 0.051869746 0.03216033 -0.0041327295 0.03039705 0.013481399 -0.037449867
0.023688814 -0.0010368192 0.04627798 0.012849639 -0.036968324 -0.039272394 -0.028798673 0.02156604
0.04188876 0.04037493 -0.043675218 0.00924064 -0.03341469 -0.03226762 0.034603935 -0.00094069174
0.029614378 0.024353376 0.04878377 -0.008442887 -0.05127861 0.033210915 0.039404336 0.039398715
-0.015680961 -0.010347467 -0.04739184 0.040930316 -0.03153053 -0.035168193 0.046507005 -0.010786114
-0.02789684 -0.014803583 0.027297799 0.033709344 -0.044501197 0.01669321 0.03104411 0.027091082
-0.038623013 0.01737196 0.0064683035 -0.040380515 -0.021963328 -0.016207352 -0.051663183 -0.033113744
-0.0037021688 0.020774443 -0.044755924 -0.025117615 0.04939594 -0.046848327 -0.023814261 0.040805582
0.015924726 -0.019501574 -0.03547535 -0.04629162 0.027550608 0.022571765 -0.054321665 -0.007332707
0.04179005 0.038936943 -0.04156253 -0.050841425 0.045058988 -0.019284798 -0.007906283 -0.01626124
0.0310068 0.0067888633 -0.014016504 -0.0037314813 0.031888552 0.028263446 -0.048088912 -0.04324982
0.021306517 0.044216137 0.03559575 -0.019919679 0.003962987 0.03264924 -0.051042426 -0.017547023
0.00311104 0.008402286 -0.001016335 -0.010983342 -0.049849432 0.054069106 -0.044247 -0.03901042
-0.04401545 0.04077674 -0.03532297 0.010252939 -0.033163488 -0.02969916 0.03233504 -0.03813747
00000000: ecd0 34bd 2166 6ebd 08f4 16bd 9af0 f53c
00000010: 2cad 1abd fb2f a5bc 3dd6 4f3c 9d25 2abd
00000020: 45ef 2d3d 511e abbb e5d7 03bd dd5a 373c
00000030: e098 07bc acad 1cbd 79f6 e93a 5007 1b3d
00000040: e1cd 563c 8224 babc cdb5 1d3d 8941 01bc
00000050: 8fa9 e13c 16a6 00bd e8db 48bd 17a2 0d3c
00000060: 6c81 e8bc 56c1 15bb f397 3fbd 7f41 63bd
00000070: 06c3 55bd 64c8 f23c 4f17 82bc 51cf bbbc
00000080: e877 a93a 8217 4cbc f367 003d 98a8 f1ba
00000090: d31b fdbc cfa7 773c e2a9 e5bc 4515 303d
000000a0: 4dc5 b1bc 7b3a 993c 8393 693b ba3c 0fbd
000000b0: ff91 40bd fe09 453d 9679 09bd 86ae aebc
000000c0: 7e6a 95bc 145b 183d 78fd 3a3d 83e5 2bbd
000000d0: 704a 26bd 8196 01bd c63e 2d3d 9510 dfbc
000000e0: 38ea 7dbc 7e1f 71bc 8a64 943c d5c4 16bd
000000f0: 3c89 a9bb fa41 fbbb 6c4a 10bd 8326 673d
00000100: af9b 0cbc 6072 cf3c 9928 583a d36f 85bc
00000110: 5c66 28bd 5d2c 60bc d143 28bd 71a9 cebc
00000120: 263a a73c eb60 03bd 64c0 c43c 4a2e 0e3d
00000130: 1488 57bb 845c 183d 0f2c 79bb efce 20bd
00000140: 0a45 483d 678c e03b 6751 e0bb fa74 c53c
00000150: 1923 013d 3c69 e5bc ceaf 98bc 8ff3 13bd
00000160: bb24 253c 9d96 49bb 39fd f73c 4438 27bd
00000170: d594 e8bb 3f7c bcbb 4c5e cf3c 4fa6 59bb
00000180: ffea 953c 70be 2c3d 42a4 38bd 453f 0cbd
00000190: 6b91 f7bc 924d 25bd 7aed b3bc 076c 8e3c
000001a0: a2e1 d3bc def4 85bc 7441 f53c 7167 313d
000001b0: 10cd 273d 85b4 07bd 3819 c8bc 3d4d 763c
000001c0: 5cff 20bb 154b a7bc 49a5 df3b 4e9f 3e3d
000001d0: b302 0c3d 7993 473c eda0 1c3c f849 8c3c
000001e0: 6e9c 6abc 69a5 21bd 80b9 29bd e330 feb8
000001f0: 9f6d b9bc 64ab 6cbc 55b9 7a3c 4651 1c3d
00000200: 80b1 1c3d 911c 38bb 108e 203d 033a 0ebd
00000210: 3bfc 643c f8c6 15bc 4128 b9bc 5d57 18bc
00000220: 69ab faba b7ec 49bd 5459 c73b 4517 ed3c
00000230: bf44 913c 4cc4 173d 2547 0bb9 b6fc 923c
00000240: 4e5e 1fbd f5c9 cebc 5f75 543d 8dba 033d
00000250: d96b 87bb 3c03 f93c 16e1 5c3c 0865 19bd
00000260: 0b0f c23c e1e5 87ba fb8d 3d3d 4b87 523c
00000270: 196c 17bd 17dc 20bd 32eb ebbc 44ab b03c
00000280: 8c93 2b3d 2f60 253d c9e4 32bd 0e66 173c
00000290: d8dd 08bd 0d2b 04bd dbbc 0d3d c198 76ba
000002a0: da99 f23c bb80 c73c 7ed1 473d 0954 0abc
000002b0: 8509 52bd 2b08 083d 7166 213d 8c60 213d
000002c0: 5c75 80bc 6c88 29bc f21d 42bd 8ca6 273d
000002d0: 2826 01bd 860c 10bd 217e 3e3d 3eb8 30bc
000002e0: ea87 e4bc ba8a 72bc a29f df3c cf12 0a3d
000002f0: e346 36bd 33c0 883c 3850 fe3c 1eee dd3c
00000300: 2a33 1ebd a44f 8e3c 10f4 d33b 0a66 25bd
00000310: 70ec b3bc 48c5 84bc c69c 53bd 47a2 07bd
00000320: 16a0 72bb 2a2f aa3c fd51 37bd 75c3 cdbc
00000330: 6653 4a3d 08e4 3fbd 2016 c3bc c123 273d
00000340: 9274 823c c4c1 9fbc 9a4e 11bd 489c 3dbd
00000350: d0b1 e13c 6ce8 b83c 6580 5ebd 3447 f0bb
00000360: 0b2c 2b3d 587c 1f3d 793d 2abd 193f 50bd
00000370: c68f 383d 27fb 9dbc 5b89 01bc 4b36 85bc
00000380: f901 fe3c 1d75 de3b 7ba5 65bc de8b 74bb
00000390: 929d 023d be88 e73c e1f8 44bd b926 31bd
000003a0: 018b ae3c fb1b 353d d9cc 113d 982e a3bc
000003b0: f2db 813b 36bb 053d dd11 51bd c6be 8fbc
000003c0: 97e2 4b3b bea9 093c 8b36 85ba 7af3 33bc
000003d0: eb2e 4cbd 9177 5d3d 583c 35bd 64c9 1fbd
000003e0: 8b49 34bd 8305 273d d2ae 10bd f1fb 273c
000003f0: 70d6 07bd a74b f3bc bf71 043d 0936 1cbd

features.3.bias f4 [32]
0.02550553 -0.008308393 0.03954458 -0.00016296167 0.0022153454 -0.04230595 -0.024617111 0.006960386
0.04648074 0.044902314 0.03300222 0.024213096 -0.008725914 -0.04606661 0.021866538 -0.035150886
0.015442149 0.0053522023 0.01249947 0.019608766 -0.03333263 0.04040234 0.04512288 0.048863843
0.018415663 -0.014652001 0.012973857 0.0027314066 0.018899783 0.028840523 0.044315085 -0.02319747
00000000: f9f0 d03c ed1f 08bc 7ff9 213d b1e0 2ab9
00000010: 542f 113b 0149 2dbd d3a9 c9bc f313 e43b
00000020: 9762 3e3d 7deb 373d 562d 073d 8b5a c63c
00000030: 23f7 0ebc 57b0 3cbd 7421 b33c 60fa 0fbd
00000040: 1101 7d3c 8761 af3b 94ca 4c3c 90a2 a03c
00000050: cc87 08bd ed7c 253d c5d2 383d 7425 483d
00000060: 72dc 963c f20e 70bc 4d90 543c 6601 333b
00000070: b8d3 9a3c f642 ec3c bc83 353d 9f08 bebc

features.4.weight f4 [32]
1.0039935 0.9973252 1.0039494 0.9888868 1.0087078 0.9910736 1.0053934 1.0022777
0.9893708 0.99262655 1.0037496 0.9926237 0.9951997 1.0029562 0.99476993 0.99953616
0.99283826 1.0071738 0.99966025 0.9961149 0.998841 0.9976959 0.9920424 0.99787855
1.0049518 0.99526316 0.9962945 0.9902794 1.0073286 1.0109605 1.0102848 0.9969509
00000000: dc82 803f b450 7f3f 6a81 803f af27 7d3f
00000010: 561d 813f 00b7 7d3f bbb0 803f a34a 803f
00000020: 6847 7d3f c61c 7e3f de7a 803f 961c 7e3f
00000030: 68c5 7e3f de60 803f 3ea9 7e3f 9ae1 7f3f
00000040: a62a 7e3f 12eb 803f bce9 7f3f 6301 7f3f
00000050: 0bb4 7f3f 0069 7f3f 7ef6 7d3f f874 7f3f
00000060: 43a2 803f 91c9 7e3f 280d 7f3f f382 7d3f
00000070: 25f0 803f 2767 813f 0351 813f 2d38 7f3f

features.4.bias f4 [32]
0.0075829173 -0.0008343301 -0.004967617 -0.010329795 -0.005512929 -0.008647017 0.0046845474 -0.010087491
-0.004035642 -0.007904669 0.0009557227 -0.0048932554 -0.004315669 -0.00092960254 -0.0026633923 -0.000668078
-0.004959426 0.005271613 0.0042663077 -0.00078288943 -0.0060290867 -0.00092441955 -0.0034982546 0.0022837499
-0.001006598 -0.0011980601 0.0016432927 -0.0020420165 -8.441461e-05 0.0017162629 -0.00050970376 -0.0024974186
00000000: 1f7a f83b f2b6 5aba 64c7 a2bb 4d3e 29bc
00000010: cda5 b4bb 38ac 0dbc d580 993b 0146 25bc
00000020: 6b3d 84bb 9682 01bc 7789 7a3a 9a57 a0bb
00000030: 756a 8dbb 92b0 73ba 4f8c 2ebb f521 2fba
00000040: ae82 a2bb 7fbd ac3b 62cc 8b3b d23a 4dba
00000050: a58f c5bb bf54 72ba f942 65bb f7aa 153b
00000060: d3ef 83ba 3a08 9dba c163 d73a 5ad3 05bb
00000070: c007 b1b8 3af4 e03a a49d 05ba bbab 23bb

features.4.running_mean f4 [32]
-0.3635025 0.006757281 -0.024358455 0.09101871 -0.042916536 -0.41757426 -0.30096972 0.021850282
0.3315487 -0.19560777 -0.27064943 -0.09297305 0.16044512 0.033242624 -0.29628623 -0.2985209
-0.03988479 -0.5317883 -0.035862476 -0.27435765 -0.3019997 0.077686235 -0.21761008 0.4005196
-0.14648634 0.1318419 -0.21511452 -0.20059535 0.07605124 -0.26791584 -0.089646764 -0.37140676
00000000: 001d babe 2e6c dd3b 628b c7bc 0468 ba3d
00000010: 40c9 2fbd 4bcc d5be b418 9abe 5dff b23c
00000020: c0c0 a93e 674d 48be 9092 8abe a868 bebd
00000030: ba4b 243e 6b29 083d d4b2 97be bbd7 98be
00000040: 3c5e 23bd 4723 08bf 88e4 12bd 9b78 8cbe
00000050: b49f 9abe f619 9f3d 2dd5 5ebe e810 cd3e
00000060: 8400 16be 9001 073e fb46 5cbe de68 4dbe
00000070: c1c0 9b3d 442c 89be b998 b7bd 0729 bebe

features.4.running_var f4 [32]
0.17634818 0.0830293 0.059199814 0.11284011 0.06459129 0.19678892 0.13225527 0.056715608
0.09908497 0.11632946 0.14357994 0.13818397 0.08861249 0.12816195 0.093460195 0.22059226
0.1102543 0.3309223 0.068354644 0.11395145 0.08202245 0.1348346 0.09490947 0.18763937
0.12207301 0.18320954 0.106117226 0.14591233 0.0989071 0.12957168 0.10483405 0.10896226
00000000: 9e94 343e 440b aa3d 817b 723d b718 e73d
00000010: 7048 843d 0983 493e ed6d 073e a04e 683d
00000020: 10ed ca3d 243e ee3d 9f06 133e 1980 0d3e
00000030: 777a b53d e33c 033e 0f68 bf3d f0e2 613e
00000040: 02cd e13d a66e a93e 85fd 8b3d 615f e93d
00000050: 63fb a73d 1512 0a3e e55f c23d 8924 403e
00000060: 6a01 fa3d 489b 3b3e fd53 d93d 0b6a 153e
00000070: ce8f ca3d 70ae 043e 3cb3 d63d 9b27 df3d

features.6.weight f4 [64, 32, 3, 3]
0.040618297 0.059861325 -0.048146706 0.041814204 -0.023051124 0.01879108 0.010707903 0.034976978
-0.003640729 0.004040657 -0.018467976 0.027492767 -0.0034116397 -0.033019487 -0.032751217 0.046363924
-0.04413348 -0.05741335 0.04177627 -0.037756387 -0.0631014 -0.019542003 -0.014305848 -0.05151394
0.013027084 -0.0032142533 -0.036963515 -0.044359513 0.012158718 -0.02188645 -0.008631028 -0.026491703
0.021466272 -0.046120316 -0.059209045 -0.021911979 -0.026875485 -0.02474873 0.007064044 0.040596515
-0.033853445 0.04175891 0.022989707 0.0049374923 -0.012324432 0.0016840379 -0.028538864 0.010257094
-0.043299753 -0.008153103 -0.01026907 0.03355579 -0.026794225 -0.010839522 0.017115328 0.031861413
0.04503937 0.02139327 -0.04439744 -0.04286137 -0.011283939 0.02885094 0.009812515 -0.004866791
-0.048263073 -0.03966534 0.009038603 0.004050775 0.013030726 -0.04971766 -0.053617045 0.006867693
0.02621056 0.029572621 -0.0081544025 -0.009407118 -0.05609775 -0.04220723 0.017191906 0.012310455
0.022857254 0.005280623 -0.018736485 -0.030250667 0.018244993 0.043084327 -0.027687397 -0.0053080027
0.03161486 -0.04619209 -0.010507876 0.054641426 -0.03559298 -0.034860406 -0.06247595 0.053722057
-0.034187075 0.043108337 -0.03973942 0.02967322 -0.044285394 -0.02620969 -0.046783764 -0.043056596
0.026409633 -0.005609157 -0.014655272 0.01505467 0.05929843 -0.033066016 0.02236038 -0.04297094
0.0100994995 0.030717071 -0.005468273 -0.012043073 -0.053612214 -0.03171771 0.0071900785 0.028959798
0.03806369 -0.030069115 -0.062061504 0.026424319 -0.037189875 0.011266449 -0.047594074 0.011946499
0.0329162 0.0049265386 -0.014310562 0.0046467884 0.049229715 0.0022534856 -0.01421975 0.03862607
0.007642452 -0.046579186 0.040284723 0.052266777 -0.0043847463 -0.038256623 0.025629183 0.061169047
-0.055826515 -0.02025697 -0.003055521 0.03181527 -0.044678845 -0.021925868 0.024893131 -0.035576213
0.0018367256 0.012296699 0.037275758 0.026345696 -0.016954428 -0.045222186 0.004751267 0.035331566
-0.0336312 0.032644644 0.050765175 -0.04685978 0.050767522 -0.052411504 -0.025689106 0.00540941
-0.01327983 -0.008601111 -0.030675024 -0.05539134 -0.010771985 0.050040994 0.018254407 -0.012789361
-0.014953626 0.045589224 -0.027379794 0.02173638 0.03549194 0.02763291 -0.05501762 0.035726424
0.0042090793 0.05928827 -0.04560365 -0.048397005 -0.044275407 -0.022812098 0.027587824 -0.042842396
0.05715976 0.018562255 -0.008285817 0.005070105 -0.057614416 0.033572778 0.051150136 -0.023065424
-0.0050376905 0.052132133 0.043688904 -0.008933297 -0.050387908 0.03562982 0.0041973353 -0.0008277506
-0.011377432 0.029677998 0.031974725 0.016829712 -8.440434e-05 -0.010044369 -0.007772059 0.027269015
-0.05558072 -0.015839795 -0.037297 0.03779587 -0.040189188 -0.030854126 0.004435056 0.0011292099
0.00028991338 0.034773532 0.031778634 -0.040555827 -0.007217075 0.012719841 -0.040149894 -0.011778432
-0.027114507 0.044072125 0.053319205 0.006165221 0.035830308 0.0021446676 0.029234996 0.0047777216
0.010883727 0.034937136 0.01348439 0.040022217 0.0013532047 0.015035231 -0.008366071 0.022181528
-0.052647583 -0.033185955 -0.054313987 0.040051933 -0.017607694 -0.027864879 0.033362057 0.020872204
00000000: 5f5f 263d 2631 753d 7b35 45bd 5f45 2b3d
00000010: b6d5 bcbc c0ef 993c 3370 2f3c 0544 0f3d
00000020: 4c99 6ebb 7d67 843b 274a 97bc 8338 e13c
00000030: d195 5fbb 713f 07bd 2426 06bd 19e8 3d3d
00000040: 4fc5 34bd 432a 6bbd 981d 2b3d 71a6 1abd
00000050: 4f3b 81bd 8d16 a0bc 1363 6abc 4800 53bd
00000060: 8d6f 553c 39a6 52bb 0e67 17bd 52b2 35bd
00000070: 5c35 473c 364b b3bc 2869 0dbc 2105 d9bc
00000080: 09da af3c a8e8 3cbd 2f85 72bd c080 b3bc
00000090: fa29 dcbc d9bd cabc 7f79 e73b 8848 263d
000000a0: e9a9 0abd 640b 2b3d e954 bc3c b0ca a13b
000000b0: 6aec 49bc efba dc3a 56ca e9bc 5f0d 283c
000000c0: 155b 31bd 9894 05bc 9a3f 28bc cc71 093d
000000d0: 907f dbbc 4098 31bc 7235 8c3c 1d81 023d
000000e0: 347b 383d f040 af3c 17da 35bd 678f 2fbd
000000f0: 45e0 38bc ce58 ec3c acc4 203c 9a79 9fbb
00000100: 80af 45bd 2078 22bd a616 143c 5dbc 843b
00000110: d47e 553c bfa4 4bbd 8c9d 5bbd 620a e13b
00000120: 87b7 d63c 4842 f23c 0b9a 05bc 5020 1abc
00000130: c1c6 65bd 7de1 2cbd 0ad6 8c3c cab1 493c
00000140: 233f bb3c 1409 ad3b 427d 99bc 3fd0 f7bc
00000150: 8676 953c 3179 303d aed0 e2bc c1ee adbb
00000160: 957e 013d eb33 3dbd 3a29 2cbc b0cf 5f3d
00000170: f2c9 11bd c9c9 0ebd c8e6 7fbd a90b 5c3d
00000180: bf07 0cbd 5e92 303d cdc5 22bd 4115 f33c
00000190: 9a64 35bd b4b5 d6bc 55a0 3fbd 1d5c 30bd
000001a0: 0459 d83c 05cd b7bb aa1c 70bc dda7 763c
000001b0: e9e2 723d 3b70 07bd 1e2d b73c 4c02 30bd
000001c0: 5f78 253c 5ea2 fb3c 332f b3bb 4f50 45bc
000001d0: 7b98 5bbd 6eea 01bd c09a eb3b 193d ed3c
000001e0: ace8 1b3d 8153 f6bc 3434 7ebd d077 d83c
000001f0: 6954 18bd e996 383c 01f2 42bd 40bb 433c
00000200: 23d3 063d cd6e a13b d976 6abc 1644 983b
00000210: 19a5 493d 37af 133b f4f9 68bc 5f36 1e3d
00000220: 896d fa3b d1c9 3ebd 9801 253d b015 563d
00000230: ebad 8fbb fab2 1cbd 4bf4 d13c 658c 7a3d
00000240: 58aa 64bd f2f1 a5bc 233f 48bb bb50 023d
00000250: 2a01 37bd e19d b3bc aeec cb3c 5db8 11bd
00000260: 49be f03a 1878 493c 77ae 183d eed2 d73c
00000270: 03e4 8abc e63a 39bd 84b0 9b3b d5b7 103d
00000280: dfc0 09bd 64b6 053d 25ef 4f3d 0af0 3fbd
00000290: 9bf1 4f3d 72ad 56bd f671 d2bc 6c41 b13b
000002a0: a593 59bc adeb 0cbc 304a fbbc 08e2 62bd
000002b0: fb7c 30bc c9f7 4c3d 448a 953c 788a 51bc
000002c0: 0e00 75bc c4bb 3a3d 974b e0bc 7e10 b23c
000002d0: ff5f 113d 6a5e e23c 285a 61bd df55 123d
000002e0: 51ec 893b 42d8 723d e5ca 3abd f03b 46bd
000002f0: 215a 35bd 70e0 babc dcff e13c 827b 2fbd
00000300: 5a20 6a3d df0f 983c 3cc1 07bc 2023 a63b
00000310: 18fd 6bbd 9c83 093d ce82 513d b3f3 bcbc
00000320: 3613 a5bb 8188 553d 23f3 323d f75c 12bc
00000330: 8d63 4ebd 93f0 113d cd89 893b 67fd 58ba
00000340: 6968 3abc 461f f33c eef7 023d 77de 893c
00000350: 3c02 b1b8 2391 24bc c2ac febb 4563 df3c
00000360: 9ca8 63bd 75c2 81bc bdc4 18bd d8cf 1a3d
00000370: 6b9d 24bd cbc1 fcbc f253 913b ff01 943a
00000380: 84ff 9739 b16e 0e3d 502a 023d de1d 26bd
00000390: 377d ecbb e166 503c 3774 24bd 53fa 40bc
000003a0: 3e1f debc f984 343d 3d65 5a3d 9f05 ca3b
000003b0: cdc2 123d 8d8d 0c3b 3b7e ef3c 6f8e 9c3b
000003c0: a951 323c 3e1a 0f3d a2ed 5c3c 56ee 233d
000003d0: 045e b13a 5456 763c d811 09bc 09b6 b53c
000003e0: fea4 57bd ffed 07bd 5878 5ebd 7f0d 243d
000003f0: 033e 90bc e344 e4bc a7a6 083d 2ffc aa3c

features.6.bias f4 [64]
0.05131753 -0.051338155 -0.033541158 0.050929237 0.01963832 0.049589947 -0.0016229942 -0.030561343
0.034010157 -0.0137537625 -0.0045496128 -0.04770476 0.054260705 -0.05678408 -0.031758416 -0.028102973
-0.030879127 0.0049583605 -0.003920737 0.036517397 -0.019567842 -0.039598715 -0.014634136 -0.04583266
-0.016806455 -0.013014452 -0.01474932 0.01046663 -0.009197931 0.034151927 0.053642217 -0.05092681
0.03101986 -0.026302468 0.014803143 0.015835721 0.04922457 0.02321068 0.02192624 0.053661183
0.0019747622 -0.010853912 -0.009389992 0.024169674 0.058912758 0.0115012545 0.03264918 -0.057186197
0.0037258684 -0.022209303 -0.041828603 0.028769013 0.02888892 0.030137712 0.017791284 -0.049636032
-0.035908327 -0.044762675 -0.008793552 -0.010677814 0.025139457 0.040001046 0.04373818 0.017214304
00000000: 5532 523d f547 52bd 7462 09bd 2d9b 503d
00000010: 8be0 a03c d41e 4b3d a6ba d4ba c85b fabc
00000020: 3c4e 0b3d 7657 61bc eb14 95bb 1166 43bd
00000030: 7940 5e3d 6c96 68bd 1d15 02bd 3538 e6bc
00000040: 39f6 fcbc be79 a23b 8779 80bb 4493 153d
00000050: bd4c a0bc 4332 22bd 04c4 6fbc 07bb 3bbd
00000060: b1ad 89bc 913a 55bc 22a7 71bc 3a7c 2b3c
00000070: ebb2 16bc e4e2 0b3d f1b7 5b3d a198 50bd
00000080: 5d1d fe3c 4678 d7bc e288 723c eab9 813c
00000090: b49f 493d 5324 be3c a89e b33c d4cb 5b3d
000000a0: 036b 013b 9bd4 31bc 7bd8 19bc 7bff c53c
000000b0: 814e 713d c26f 3c3c 26bb 053d 133c 6abd
000000c0: b32d 743b 49f0 b5bc 7854 2bbd feac eb3c
000000d0: 75a8 ec3c 5de3 f63c 07bf 913c 274f 4bbd
000000e0: 9c14 13bd 1159 37bd d512 10bc fff1 2ebc
000000f0: 43f1 cd3c 23d8 233d ce26 333d 0305 8d3c

features.7.weight f4 [64]
1.0032284 1.0105783 0.98746663 1.0045419 0.9922069 0.99878174 1.0047901 1.0049009
0.99322546 0.99748725 0.9924868 0.9951857 1.0008436 1.0051855 0.9982595 1.0087913
0.9997165 0.99922293 1.0056492 0.9922415 1.0058627 0.9962745 0.9916493 0.9929471
0.9963622 1.0061035 0.99717504 0.99799997 0.9905788 1.0032232 0.9947317 1.0045727
0.9947639 0.9984131 1.000283 0.9954358 0.993502 0.9906031 0.99879694 0.9970788
0.9930732 1.0069188 0.9898345 1.011631 0.9905302 0.9973407 0.99942565 1.0047
1.0125962 1.0036738 1.0052645 0.99995875 0.99092996 0.99556524 1.002531 0.99475133
0.9925522 0.99223584 1.0012399 1.0005913 1.0016211 1.0039749 1.0013016 1.0032504
00000000: ca69 803f a15a 813f 9dca 7c3f d494 803f
00000010: 4501 7e3f 29b0 7f3f f69c 803f 98a0 803f
00000020: 0644 7e3f 535b 7f3f 9d13 7e3f 7dc4 7e3f
00000030: a51b 803f eba9 803f ef8d 7f3f 1320 813f
00000040: 6ced 7f3f 13cd 7f3f 1db9 803f 8a03 7e3f
00000050: 1cc0 803f d80b 7f3f bbdc 7d3f c831 7e3f
00000060: 9811 7f3f 00c8 803f dd46 7f3f ed7c 7f3f
00000070: 9296 7d3f 9e69 803f bda6 7e3f d795 803f
00000080: d9a8 7e3f 0098 7f3f 4609 803f e1d4 7e3f
00000090: 2656 7e3f 2a98 7d3f 28b1 7f3f 8e40 7f3f
000000a0: 0c3a 7e3f b7e2 803f cb65 7d3f 207d 813f
000000b0: 6393 7d3f b851 7f3f 5cda 7f3f 029a 803f
000000c0: c19c 813f 6278 803f 82ac 803f 4cfd 7f3f
000000d0: 96ad 7d3f 5ddd 7e3f f052 803f 06a8 7e3f
000000e0: e717 7e3f 2b03 7e3f a128 803f 6013 803f
000000f0: 1f35 803f 4082 803f a72a 803f 826a 803f

features.7.bias f4 [64]
-0.0011889754 0.0010250364 -0.0054788417 0.0012151117 -0.001224944 -0.0023204354 0.001976955 0.005696984
-0.012449534 -0.0064873085 -0.004972355 -0.006347388 -0.0009666861 0.00028930427 -0.004699488 -0.010955437
1.997821e-05 0.008118942 0.0023061992 -0.0059234933 0.0014624326 -0.0033227014 -0.0035347827 -0.00768263
0.0059729456 -0.004369834 0.00041537572 -0.0014134293 -0.009158841 -0.0005742616 -0.0062825326 0.002612613
-0.0074370108 0.004013608 0.0010632506 -0.007164434 -0.0043099527 -0.0076553114 -0.0037097088 -0.0059319413
-0.0076533677 0.001218821 -0.008308597 0.0028819195 -0.010366708 -0.0068180994 0.00016396689 0.0057338215
0.006537316 -2.9303217e-05 -0.006399614 -0.0040365164 -0.008932047 -0.0054337354 -0.0049196794 -0.0055046743
-0.0017513603 -0.00907662 0.0025047318 -0.0027580876 -0.0042158477 -0.0036240472 -0.01047685 -6.3987e-05
00000000: 65d7 9bba 845a 863a db87 b3bb 6244 9f3a
00000010: 4d8e a0ba 7212 18bb cd8f 013b c4ad ba3b
00000020: 21f9 4bbc 7d93 d4bb 23ef a2bb c0fd cfbb
00000030: 3569 7dba c3ad 9739 2afe 99bb 6f7e 33bc
00000040: e196 a737 5005 053c 9a23 173b dd19 c2bb
00000050: 18af bf3a aec1 59bb d0a7 67bb 92be fbbb
00000060: b3b8 c33b d330 8fbb c9c6 d939 d142 b9ba
00000070: f70e 16bc 0b8a 16ba b4dd cdbb 5f38 2b3b
00000080: 2bb2 f3bb 9684 833b c55c 8b3a a1c3 eabb
00000090: 813a 8dbb 68d9 fabb 961e 73bb bb60 c2bb
000000a0: 1ac9 fabb d9c0 9f3a c820 08bc 96de 3c3b
000000b0: 20d9 29bc 5d6a dfbb 87ee 2b39 c8e2 bb3b
000000c0: fb36 d63b 2ed0 f5b7 dab3 d1bb c144 84bb
000000d0: b857 12bc 7a0d b2bb 4335 a1bb 8e60 b4bb
000000e0: e68d e5ba 1bb6 14bc 6d26 243b 08c1 34bb
000000f0: 1825 8abb 6c81 6dbb 18a7 2bbc c230 86b8

features.7.running_mean f4 [64]
-0.123354845 0.11651999 -0.11928187 0.4520087 -0.4327303 0.17860901 -0.21214907 -0.1619746
-0.10017087 0.08690291 -0.010005698 -0.12651058 0.15667363 0.1686481 -0.21571855 -0.22340299
-0.045324203 -0.31591997 0.08805373 0.24786215 -0.1374056 -0.35217974 0.27323002 0.03723401
-0.25253326 0.18416388 -0.053165574 0.20199023 0.16917337 -0.39103955 -0.27062434 0.032731753
0.29997563 -0.5187139 0.32336476 0.060815874 0.19653742 0.08368112 -0.3326593 -0.27084947
-0.26290205 0.35057852 -0.29957703 -0.037726305 -0.022374243 -0.1398273 -0.10513413 -0.18001345
-0.09048026 0.0069440426 -0.06083573 0.053060323 -0.35129938 -0.45965847 0.017780552 0.03331169
-0.08587177 0.20091245 -0.38588083 -0.20455313 0.20322657 -0.1856779 0.123293385 -0.0048394743
00000000: 77a1 fcbd 08a2 ee3d 0e4a f4bd af6d e73e
00000010: d38e ddbe 48e5 363e 9b3d 59be abdc 25be
00000020: 6326 cdbd 27fa b13d f0ee 23bc fd8b 01be
00000030: 0d6f 203e 16b2 2c3e 53e5 5cbe c1c3 64be
00000040: dfa5 39bd 43c0 a1be 8455 b43d 93cf 7d3e
00000050: 0eb4 0cbe e750 b4be cee4 8b3e b082 183d
00000060: 0a4c 81be 7595 3c3e 25c4 59bd 87d6 4e3e
00000070: c93b 2d3e 5636 c8be 468f 8abe bb11 063d
00000080: 6896 993e 6fca 04bf 1190 a53e 111a 793d
00000090: 1b41 493e 0261 ab3d 5252 aabe c8ac 8abe
000000a0: 199b 86be 077f b33e 2962 99be e686 1abd
000000b0: 304a b7bc e32e 0fbe 9050 d7bd 7255 38be
000000c0: b74d b9bd da8a e33b e32e 79bd c855 593d
000000d0: 83dd b3be 5b58 ebbe 85a8 913c d771 083d
000000e0: 8add afbd febb 4d3e 2c92 c5be 6076 51be
000000f0: a01a 503e 5922 3ebe 3e81 fc3d 7494 9ebb

features.7.running_var f4 [64]
0.122719735 0.095396355 0.16922627 0.10504418 0.11631993 0.12929799 0.081522696 0.11562864
0.088363186 0.11202859 0.09234049 0.120115444 0.09027111 0.10388261 0.052183677 0.07059459
0.1798647 0.10873234 0.12969951 0.13255401 0.10726331 0.10519592 0.07729973 0.13312995
0.15250212 0.13247658 0.099806406 0.084234454 0.119630806 0.12966919 0.09352823 0.1868958
0.121212915 0.1558309 0.09634467 0.112895764 0.09433158 0.11650868 0.17567347 0.08568571
0.1581379 0.08483023 0.09790101 0.11289117 0.13586812 0.15739094 0.07643011 0.11436965
0.096570425 0.084815934 0.080731 0.07328235 0.14828849 0.082660064 0.09730388 0.16948827
0.08255627 0.10209415 0.08780144 0.08300204 0.070606284 0.096347675 0.10461514 0.1109771
00000000: 7c54 fb3d 2a5f c33d a749 2d3e 6721 d73d
00000010: 2539 ee3d b166 043e 5ff5 a63d b5ce ec3d
00000020: c2f7 b43d 3f6f e53d 031d bd3d 16ff f53d
00000030: 0fe0 b83d 68c0 d43d 8dbe 553d e593 903d
00000040: 742e 383e 10af de3d f3cf 043e 3dbc 073e
00000050: deac db3d f570 d73d 524f 9e3d 3853 083e
00000060: 8429 1c3e f1a7 073e 4d67 cc3d 1d83 ac3d
00000070: ff00 f53d 00c8 043e bb8b bf3d 9d61 3f3e
00000080: 7a3e f83d 2392 1f3e 5b50 c53d e535 e73d
00000090: ea30 c13d 1a9c ee3d bfe3 333e fd7b af3d
000000a0: e7ee 213e 79bb ad3d 5380 c83d 7c33 e73d
000000b0: 0321 0b3e 172b 213e 6487 9c3d a33a ea3d
000000c0: b7c6 c53d fab3 ad3d 4b56 a53d 0f15 963d
000000d0: f0d8 173e ae49 a93d 4247 c73d 558e 2d3e
000000e0: 4313 a93d bd16 d13d 3ed1 b33d f9fc a93d
000000f0: 079a 903d ee51 c53d 7640 d63d f647 e33d

features.9.weight f4 [128, 64, 3, 3]
0.01931422 0.007028376 -0.038266268 0.022581268 -0.0050614886 -0.03594018 -0.040380355 0.0074292673
-0.025659205 0.039232552 0.009765036 0.03924079 -0.003288239 0.006079408 0.0099893445 0.026613412
0.021029176 0.034170415 -0.016881768 -0.034204245 -0.031570263 0.01032874 0.007818644 0.026072167
0.033732343 -0.03363703 0.02341566 -0.004823172 -0.01670631 -0.031503383 -0.02050563 0.023587804
0.03675183 0.0043055536 0.017194608 0.0028325631 -0.02469741 -0.018085767 0.017772846 -0.015661266
-0.034277644 -0.00053907477 -0.015366943 0.031039169 0.0061497972 0.008477881 -0.012738289 0.008171332
0.0064843604 0.024522953 0.01380035 0.03494294 0.011290929 -0.025052508 -0.0039319945 0.0135621885
-0.040362872 -0.017384069 -0.04839095 -0.027862294 0.021069424 -0.018474171 -0.010422896 -0.011987199
-0.004908558 -0.018573752 0.026220635 0.011122653 0.031554688 0.026726877 0.016737008 -0.031094985
0.043479748 0.026968947 0.022372482 -0.026817132 -0.036668975 -0.005918972 0.0065289983 0.039598804
-0.017340416 0.02599505 -0.04277874 -0.033954743 0.022425774 0.007945938 0.015237186 -0.008979457
0.03391476 0.016036306 0.021274561 0.034920428 -0.013910162 -0.02596756 0.010425958 -0.02044517
-0.009104245 0.04147229 -0.01548061 -0.029992558 -0.03928931 0.013914477 0.0062703965 -0.016826525
-0.030113515 -0.012133593 0.00038365388 0.03329104 0.04095158 -0.028470788 -0.010065445 -0.018905958
-0.02272591 0.019021392 -0.029868385 0.0026994587 -0.0043045054 0.008851077 0.04012253 0.0029232735
0.03033381 0.015292646 -0.035794593 -0.011129128 -0.032693576 0.036604404 -0.004406432 0.013995001
-0.0019322425 0.031006893 -0.02230531 -0.020667134 -0.026357247 0.042500388 -0.025021909 -0.03513669
-0.02252807 0.013960803 -0.0015791894 -0.0036419467 0.034321856 -0.022112178 -0.0038738747 -0.032318488
-0.032708578 0.024629889 -0.002649985 -0.032237004 -0.02092034 0.024447776 0.025778595 -0.028885111
0.039249208 0.024123367 0.029864183 -0.0090836305 0.0072265533 0.014453345 0.017590182 -0.04165809
-0.012998573 0.00047142344 0.043877102 -0.03291663 -0.018030709 -0.014693018 0.01496721 -0.021785356
0.040372748 0.011152426 -0.0048289634 -0.024315897 -0.012563563 -0.037825998 0.030141722 -0.011716544
-0.0055829794 0.03331838 -0.03199443 -0.0055478327 0.032221094 -0.0120263 0.029253874 0.04098549
0.04206965 0.006529272 0.03399765 0.013366988 0.033138387 0.0037568265 -0.013776029 -0.0020128924
-0.0013891918 0.026384668 -0.004386605 -0.00042839636 -0.045000184 -0.03601784 -0.0364242 -0.013498097
0.032853182 0.02097016 -0.012572755 0.018734561 0.040300187 0.016461276 0.03636335 0.013938382
-0.010241338 0.01441652 0.031266037 -0.016819688 -0.031140307 0.0032568628 0.004743662 0.039375216
0.030514115 0.042206135 -0.015310943 0.034982897 -0.015244445 -0.0045654224 0.015558441 0.034027893
-0.008107827 -0.0012546632 0.03272485 0.03889719 0.04196574 0.025001118 0.03538482 -0.028240424
0.027001305 0.01575124 0.025623122 0.047795393 0.04423205 0.03185279 0.042614143 -0.019313568
-0.009126387 -0.024825739 0.008189784 0.009560021 -0.009777561 -0.016363544 -0.042898554 0.02719585
-0.029151464 0.0119842 -0.03739137 -0.024970043 0.013168966 0.040936206 0.0011096518 -0.037748203
00000000: db38 9e3c 4b4e e63b 17bd 1cbd 5afc b83c
00000010: d8da a5bb 0336 13bd df65 25bd 3671 f33b
00000020: 4133 d2bc 50b2 203d 88fd 1f3c f3ba 203d
00000030: 7f7f 57bb c535 c73b 59aa 233c 5f04 da3c
00000040: 6145 ac3c 47f6 0b3d a24b 8abc c019 0cbd
00000050: d24f 01bd e039 293c c519 003c 4c95 d53c
00000060: ed2a 0a3d fbc6 09bd 33d2 bf3c b30b 9ebb
00000070: acdb 88bc b109 01bd 6cfb a7bc 363b c13c
00000080: 1689 163d 9a15 8d3b b5db 8c3c 86a2 393b
00000090: 3952 cabc 9a28 94bc 5c98 913c 0e4c 80bc
000000a0: b766 0cbd b250 0dba a1c5 7bbc db45 fe3c
000000b0: 3d84 c93b cfe6 0a3c 42b4 50bc 0de1 053c
000000c0: c27a d43b 5ce4 c83c dd1a 623c 5420 0f3d
000000d0: 97fd 383c eb3a cdbc f6d7 80bb f133 5e3c
000000e0: 8a53 25bd 0969 8ebc 9735 46bd 773f e4bc
000000f0: c999 ac3c 2557 97bc cbc4 2abc f565 44bc
00000100: f8d7 a0bb fb27 98bc a8cc d63c ca3b 363c
00000110: 7d3f 013d 53f2 da3c 0d1c 893c e9ba febc
00000120: d217 323d fbed dc3c 7f46 b73c 9aaf dbbc
00000130: 3532 16bd f0f3 c1bb 35f1 d53b 5b32 223d
00000140: 7d0d 8ebc 92f3 d43c c338 2fbd 2114 0bbd
00000150: 42b6 b73c ae2f 023c 64a5 793c 931e 13bc
00000160: 34ea 0a3d 925e 833c fd47 ae3c b908 0f3d
00000170: 73e7 63bc ecb9 d4bc a3d1 2a3c a17c a7bc
00000180: f929 15bc d9de 293d 62a2 7dbc f4b2 f5bc
00000190: d4ed 20bd 8cf9 633c e677 cd3b c8d7 89bc
000001a0: 9eb0 f6bc facb 46bc 2725 c939 305c 083d
000001b0: d8bc 273d 923b e9bc 89e9 24bc abe0 9abc
000001c0: b02b babc c0d2 9b3c 8bae f4bc 67e9 303b
000001d0: cf0c 8dbb 1c04 113c 8657 243d 6494 3f3b
000001e0: 9c7e f83c 028e 7a3c 5a9d 12bd f256 36bc
000001f0: b3e9 05bd 80ee 153d d563 90bb 4a4b 653c
00000200: 4d43 fdba 2b02 fe3c a0b9 b6bc 1f4e a9bc
00000210: 27eb d7bc e314 2e3d bffa ccbc 7deb 0fbd
00000220: c98c b8bc dabb 643c cefc ceba baad 6ebb
00000230: 1395 0c3d 9924 b5bc d5e0 7dbb 6460 04bd
00000240: 6ef9 05bd 9fc4 c93c 5fab 2dbb f30a 04bd
00000250: 2261 abbc b446 c83c a22d d33c 78a0 ecbc
00000260: c7c3 203d 5e9e c53c bba5 f43c 82d3 14bc
00000270: b9cc ec3b b9cd 6c3c 4919 903c aca1 2abd
00000280: f7f7 54bc 6229 f739 7ab8 333d 97d3 06bd
00000290: 23b5 93bc fcba 70bc 0739 753c 3477 b2bc
000002a0: e55d 253d aab8 363c 483c 9ebb 2232 c7bc
000002b0: 67d7 4dbc 6fef 1abd c6eb f63c bff6 3fbc
000002c0: 6df1 b6bb db78 083d 970c 03bd 98ca b5bb
000002d0: 44fa 033d f509 45bc d2a5 ef3c 67e0 273d
000002e0: 3a51 2c3d 81f3 d53b 1f41 0b3d 3601 5b3c
000002f0: 1ebc 073d 1735 763b dbb4 61bc bbea 03bb
00000300: 8b15 b6ba a924 d83c 83bd 8fbb 639a e0b9
00000310: 1d52 38bd 7187 13bd 8b31 15bd 1f27 5dbc
00000320: 0f91 063d 9dc9 ab3c f5fd 4dbc 3979 993c
00000330: cf11 253d ccd9 863c bcf1 143d d05d 643c
00000340: 49cb 27bc 4433 6c3c d110 003d 71c9 89bc
00000350: f519 ffbc 1771 553b b970 9b3b e847 213d
00000360: bdf8 f93c 57e0 2c3d c0da 7abc 3a4a 0f3d
00000370: d6c3 79bc 8a99 95bb d5e8 7e3c d560 0b3d
00000380: b1d6 04bc 8373 a4ba 7e0a 063d a952 1f3d
00000390: 45e4 2b3d 25cf cc3c acef 103d 7658 e7bc
000003a0: d731 dd3c bf08 813c 95e7 d13c 1ac5 433d
000003b0: ab2c 353d 1278 023d 2b8c 2e3d 7d37 9ebc
000003c0: d786 15bc 595f cbbc 722e 063c a2a1 1c3c
000003d0: 1032 20bc d70c 86bc 65b6 2fbd d5c9 de3c
000003e0: 0dcf eebc 6159 443c b127 19bd fa8d ccbc
000003f0: a6c2 573c b9ac 273d bc71 913a dc9d 1abd

features.9.bias f4 [128]
0.023550348 -0.03581696 -0.038512483 -0.0033225834 0.016294107 0.03586525 -0.015521256 0.012374671
-0.017817482 -0.022987094 -0.017018847 0.0003051249 0.012724162 0.02689226 0.02731397 -0.02162323
0.012941022 0.00322521 -0.040080965 0.029760333 0.014134583 -0.041037656 -0.0055285175 0.023620253
0.034515094 0.03911658 0.018494418 0.021054823 0.039538506 0.017718595 0.014962679 0.029376322
0.038483188 -0.007608545 -0.025162421 0.015524469 0.02974621 0.017582895 -0.0018347213 0.010246496
-0.030288478 -0.027245516 -0.03599787 -0.011164863 0.031721644 0.012078007 -0.0098502245 0.0077535408
0.028706484 -0.00071102293 -0.016503073 0.036820248 -0.009526066 0.031240782 0.027793126 -0.013245341
0.024677608 0.0030505238 -0.0024919226 0.023520863 -0.025580477 0.03912959 -0.002522191 0.034846462
0.01526131 0.0028127963 -0.0125071155 -0.029491533 -0.027910255 0.0045366855 0.014118178 0.0002960087
-0.037834026 -0.03429683 0.024380302 -0.011464581 0.039859273 -0.0062846555 -0.040064417 -0.01935986
-0.0108544715 -0.025282472 0.035524473 -0.037632268 0.019142894 0.033995263 0.0036086366 0.027233507
0.03958474 0.028043477 -0.040269844 0.015406265 0.025791302 0.03640056 0.008547446 -0.034097165
-0.015865922 -0.012755292 -0.034382258 0.015461829 -0.015704244 0.013936181 -0.037637535 -0.0049186
0.023143962 -0.00049356377 0.009214968 -0.0114364 0.013259889 0.0012486973 0.019696161 0.004367356
0.03784064 0.008508918 -0.030348595 -0.005030058 -0.002354731 -0.030861225 -0.03192412 -0.012006017
-0.039858647 0.02134489 -0.013184339 0.02904908 -0.026922755 -0.03324139 0.037719112 -0.022462936
00000000: a9ec c03c ceb4 12bd 44bf 1dbd b3bf 59bb
00000010: 387b 853c 71e7 123d de4c 7ebc 22bf 4a3c
00000020: f8f5 91bc 6e4f bcbc 1c6b 8bbc 2cf9 9f39
00000030: 0179 503c 284d dc3c 8cc1 df3c 3323 b1bc
00000040: 9506 543c 0b5e 533b f02b 24bd f1cb f33c
00000050: bd94 673c 1a17 28bd 9128 b5bb 437f c13c
00000060: b35f 0d3d b538 203d 9b81 973c 2a7b ac3c
00000070: 21f3 213d 9626 913c 0626 753c 9da6 f03c
00000080: 8ca0 1d3d 1a51 f9bb 6c21 cebc 585a 7e3c
00000090: 53ae f33c 010a 903c 087b f0ba ebe0 273c
000000a0: 8b1f f8bc fd31 dfbc 8172 13bd d4ec 36bc
000000b0: 8eee 013d d5e2 453c d662 21bc 6a11 fe3b
000000c0: dc29 eb3c f163 3aba 7431 87bc d4d0 163d
000000d0: 3713 1cbc abec ff3c 69ae e33c fd02 59bc
000000e0: b228 ca3c 4ceb 473b 864f 23bb d3ae c03c
000000f0: 268e d1bc 5946 203d 584b 25bb 2abb 0e3d
00000100: 930a 7a3c e456 383b a5ea 4cbc 3a98 f1bc
00000110: 0ca4 e4bc 7aa8 943b ee4f 673c 9d31 9b39
00000120: daf7 1abd d57a 0cbd 33b9 c73c f0d5 3bbc
00000130: 7a43 233d 83ef cdbb 961a 24bd 9298 9ebc
00000140: f4d6 31bc 301d cfbc 1c82 113d 4b24 1abd
00000150: 8fd1 9c3c 9e3e 0b3d e07e 6c3b ce18 df3c
00000160: 9c23 223d 6fbb e53c fef1 24bd 8f6a 7c3c
00000170: 4848 d33c c118 153d 960a 0c3c 78a9 0bbd
00000180: 40f9 81bc 92fb 50bc 69d4 0cbd 9c53 7d3c
00000190: 30a6 80bc 9454 643c d129 1abd 352c a1bb
000001a0: 6898 bd3c 8162 01ba 61fa 163c bd5f 3bbc
000001b0: 0140 593c 54ab a33a d859 a13c 0a1c 8f3b
000001c0: c9fe 1a3d fd68 0b3c 9e9d f8bc 2fd3 a4bb
000001d0: d551 1abb aed0 fcbc dec2 02bd e3b4 44bc
000001e0: d242 23bd 7bdb ae3c 2003 58bc 56f8 ed3c
000001f0: 1c8d dcbc 2028 08bd 5b7f 1a3d 3104 b8bc

features.10.weight f4 [128]
1.007938 1.0000342 1.0054506 1.0017136 1.0119276 1.005755 1.006459 1.0024858
0.99758565 1.0039626 1.0064198 1.0075349 1.0061938 1.0031979 1.0113473 1.0009558
0.9926819 1.0012598 1.0107903 1.0089729 1.0093269 1.0059056 1.0101045 1.0101995
1.0104296 1.0041697 1.0040635 1.007176 1.004585 1.0108689 1.0096388 1.0032547
1.0109439 1.0100902 1.0009397 1.0062236 1.007273 1.008602 1.0054094 1.0115292
1.0056626 1.00227 0.99560785 1.004813 1.0102296 1.0050175 0.9999153 0.9979914
1.01035 0.9986068 1.0082191 0.9941411 1.0009229 1.0104749 1.0123979 1.003069
1.0079743 1.009818 1.0020891 1.010181 1.0093642 1.0109017 1.0000734 1.0082463
1.0092592 1.0057518 1.0102752 1.010532 1.0101066 0.99904317 0.99694294 1.0033888
1.0097907 1.01114 1.0115402 1.0097771 1.0115981 1.0058972 0.99750143 0.99964803
1.0077648 1.0119153 1.0129385 1.0015982 0.9978766 0.9974129 1.009603 1.0012947
1.0083045 1.0124415 1.0028783 1.0081226 0.996666 1.0077173 1.0027688 1.0079938
1.0097375 1.0068848 1.0058547 1.0098938 1.0101384 1.0059667 0.9968896 0.9921116
1.0140004 1.0018291 1.0094904 1.0036447 1.0055376 0.9954046 1.0074812 0.9926178
0.99380744 1.0011128 0.9912459 1.0036366 1.0069897 1.0029101 1.009588 1.0139794
1.0101032 1.0132731 1.0082096 1.0086502 1.0003392 1.0008519 1.0115641 1.0054855
00000000: 1d04 813f 1f01 803f 9bb2 803f 2738 803f
00000010: d886 813f 94bc 803f a6d3 803f 7451 803f
00000020: c661 7f3f d981 803f 5dd2 803f e7f6 803f
00000030: f5ca 803f ca68 803f d473 813f 521f 803f
00000040: 6720 7e3f 4829 803f 9461 813f 0626 813f
00000050: a031 813f 84c1 803f 1b4b 813f 384e 813f
00000060: c255 813f a288 803f 2785 803f 25eb 803f
00000070: 3e96 803f 2764 813f d83b 813f a66a 803f
00000080: 9c66 813f a34a 813f cb1e 803f efcb 803f
00000090: 52ee 803f df19 813f 41b1 803f ca79 813f
000000a0: 8db9 803f 624a 803f 28e0 7e3f b69d 803f
000000b0: 344f 813f 6aa4 803f 73fa 7f3f 5d7c 7f3f
000000c0: 2653 813f b2a4 7f3f 530d 813f 0880 7e3f
000000d0: 3e1e 803f 3e57 813f 4196 813f 9164 803f
000000e0: 4d05 813f b741 813f 7544 803f 9c4d 813f
000000f0: d932 813f 3a65 813f 6802 803f 370e 813f
00000100: 682f 813f 7abc 803f b350 813f 1d59 813f
00000110: 2c4b 813f 4bc1 7f3f a737 7f3f 0b6f 803f
00000120: d240 813f 096d 813f 267a 813f 6040 813f
00000130: 0c7c 813f 3dc1 803f 415c 7f3f efe8 7f3f
00000140: 70fe 803f 7186 813f f8a7 813f 5f34 803f
00000150: d774 7f3f 7456 7f3f ac3a 813f 6d2a 803f
00000160: 1f10 813f af97 813f 515e 803f 290a 813f
00000170: 8125 7f3f e1fc 803f ba5a 803f f105 813f
00000180: 143f 813f 9ae1 803f d9bf 803f 3344 813f
00000190: 374c 813f 84c3 803f 2834 7f3f 07fb 7d3f
000001a0: c4ca 813f f03b 803f fb36 813f 6e77 803f
000001b0: 75b5 803f d6d2 7e3f 25f5 803f 331c 7e3f
000001c0: 2a6a 7e3f 7724 803f 4bc2 7d3f 2a77 803f
000001d0: 0ae5 803f 5c5f 803f 2e3a 813f 14ca 813f
000001e0: 104b 813f efb2 813f 030d 813f 731b 813f
000001f0: 1d0b 803f ea1b 803f ef7a 813f c0b3 803f

features.10.bias f4 [128]
0.006678344 -0.0024900455 0.0009893966 0.00029765497 0.012051346 0.0015391107 0.0038153268 0.002138087
-0.0024360393 0.0020406633 0.0024436323 0.0049287016 0.0008823927 0.00069903187 0.00975916 -0.00033632334
-0.008056614 -0.0023571025 0.01052743 0.008247731 0.009962589 0.005342725 0.007618004 0.008476637
0.008933156 6.184399e-05 -0.0003578405 0.0063626925 0.0008768157 0.010225069 0.008441407 -0.0018615407
0.009369701 0.0086906925 -0.00048434123 0.00086943636 0.0053824275 0.005864298 0.0030412306 0.009220441
0.0051662144 -0.00018803503 -0.0044669616 0.005486937 0.0074980035 0.0038863348 -0.004798416 -0.0018604423
0.010420194 -0.0049958937 0.0032389564 -0.0061784643 -0.0024136596 0.008462233 0.010727975 0.0032293452
0.0078456905 0.0065279617 0.0020178487 0.008778408 0.0062362 0.009638903 -0.0030722248 0.0074654487
0.008277492 0.005269631 0.0072893086 0.00740565 0.009116377 -0.0013651538 -0.0047265263 0.00041219615
0.008086038 0.010623316 0.010915563 0.00797277 0.009969809 0.0013777217 -0.00459322 -0.0043154005
0.005114115 0.0103640845 0.01014249 -0.00036878523 -0.0038305372 -0.0047584893 0.0090561295 -0.0001790431
0.004823456 0.0128518315 0.0033101996 0.006683209 -0.0035938954 0.0073362943 -0.0014889565 0.006494566
0.008821757 0.004944347 0.0049166167 0.009098046 0.009841882 0.0015662945 -0.0023662988 -0.0092301
0.011553974 -0.0029683853 0.008714222 0.0022291213 0.0039639645 -0.0050375443 0.004864085 -0.008291857
-0.0064490843 1.8312494e-05 -0.010760246 0.0034516333 0.0019958785 -0.00056097243 0.0076185046 0.012738162
0.0057251193 0.011384691 0.007841686 0.0069959266 -0.0026659293 -0.0026507706 0.009514476 0.0013483043
00000000: 03d6 da3b 0830 23bb a4ae 813a 930e 9c39
00000010: 0273 453c fcbb c93a 900a 7a3b 261f 0c3b
00000020: f5a5 1fbb a6bc 053b 5925 203b f280 a13b
00000030: 5f50 673a 3c3f 373a e2e4 1f3c 8e54 b0b9
00000040: e3ff 03bc 9e79 1abb 3e7b 2c3c 7e21 073c
00000050: 203a 233c 0712 af3b 73a0 f93b 98e1 0a3c
00000060: 5f5c 123c 3db2 8138 8a9c bbb9 227e d03b
00000070: 1bda 653a 0c87 273c d44d 0a3c f1fe f3ba
00000080: 6083 193c 6863 0e3c 2eef fdb9 e3ea 633a
00000090: 135f b03b 4c29 c03b 624f 473b 5511 173c
000000a0: 5949 a93b 452b 45b9 975f 92bb c3cb b33b
000000b0: d0b1 f53b e1b1 7e3b 083c 9dbb 16da f3ba
000000c0: 76b9 2a3c 98b4 a3bb ac44 543b b774 cabb
000000d0: 7d2e 1ebb 2da5 0a3c 63c4 2f3c 6ca3 533b
000000e0: 368b 003c 83e8 d53b e23d 043b 50d3 0f3c
000000f0: 0a59 cc3b 7dec 1d3c 6157 49bb b9a0 f43b
00000100: 519e 073c deac ac3b 27db ee3b 18ab f23b
00000110: db5c 153c f6ee b2ba fae0 9abb 081c d839
00000120: 4d7b 043c 6b0d 2e3c 31d7 323c 39a0 023c
00000130: 6958 233c ab94 b43a b982 96bb 3468 8dbb
00000140: 4e94 a73b 1fce 293c b02c 263c 8459 c1b9
00000150: c009 7bbb 1aed 9bbb 2960 143c 84bd 3bb9
00000160: 150e 9e3b 7d90 523c efef 583b d2fe da3b
00000170: 8f87 6bbb 4c65 f03b 1729 c3ba 5ed0 d43b
00000180: 2189 103c 3004 a23b 921b a13b f90f 153c
00000190: d83f 213c 1f4c cd3a e813 1bbb d839 17bc
000001a0: e14c 3d3c 3e89 42bb 19c6 0e3c 7316 123b
000001b0: 25e4 813b fc11 a5bb e762 9f3b 92da 07bc
000001c0: d752 d3bb c89d 9937 be4b 30bc cc34 623b
000001d0: 49cd 023b 390e 13ba a6a4 f93b b9b3 503c
000001e0: c899 bb3b db86 3a3c 6a7a 003c 163e e53b
000001f0: dfb6 2ebb 8db8 2dbb 9be2 1b3c 96b9 b03a
